ExampleFiles/CameraParams/cam_params_andrew.npz (npz, 2014 bytes, 5 tensors)

ret f8 []
0	0x3fe4528ab0b927e8	0.6350758983255647

mtx f8 [3, 3]
0	0x408ced6e9afe3eb0	925.6790065634614
1	0x0000000000000000	0.0
2	0x4083a9e255f7c676	629.2355155332032
3	0x0000000000000000	0.0
4	0x408d0e9104752546	929.8208092834473
5	0x407e671ea943e571	486.44498564264273
6	0x0000000000000000	0.0
7	0x0000000000000000	0.0
8	0x3ff0000000000000	1.0

dist f8 [1, 5]
0	0x3fada515ac777dda	0.05790012102420024
1	0xbfc3085ed6ca939c	-0.14869294631821794
2	0xbf5a452a2122f0d5	-0.0016034041805559802
3	0x3f4594f9c8474ec6	0.0006586284294436077
4	0x3fc2b2d2be2f7c98	0.14608225141907805

rvecs f8 [14, 3, 1]
0	0x3fb831660a901e39	0.09450376279721064
1	0xbfdb1ff66cd20217	-0.4238258421610523
2	0xbfc2e6fb908a92e6	-0.14767403180771693
3	0x3fad1907bef35573	0.056831590709104506
4	0x3fc9a628e119f383	0.20038329116132667
5	0x3fb70459fcc100b7	0.08991014881849223
6	0x3fb0bc1cc6c6fcd1	0.06537036755524929
7	0x3fc8ddd38c4d05b7	0.19426960325840323
8	0x3fb62212c08ab0c7	0.08645741654135285
9	0xbfd7505a65daf70e	-0.3642793650322894
10	0xbfa047401ddbcd92	-0.03179359783635073
11	0xbf9fa958a193d38d	-0.030919442045120916
12	0xbfc7185fea51686c	-0.18043135587032866
13	0xbf96cce7d2cdcb72	-0.02226602768082437
14	0x3f70cc1693087f13	0.004100883656547943
15	0x3fb68f53a02399f7	0.08812449130673615
16	0xbfa363fc98eefbca	-0.037872213047641504
17	0xbf919f0e6a6c434f	-0.017208314176119285
18	0xbfd037f4f6209b28	-0.25341533695102436
19	0xbfb17cf6df33e8f9	-0.0683130545548102
20	0xbf85fdef5a3ae6d2	-0.01073824876890531
21	0x3fb8c7c7d1a5db7d	0.09679840916019873
22	0xbfdb97388205f250	-0.43110478112774775
23	0xbfc565237533c551	-0.16714900229230037
24	0x3f299fe765357a15	0.00019550037050471204
25	0xbfb6a3f9375d9cf5	-0.0884395370645626
26	0xbf91716c84bb8bcc	-0.017034240342478843
27	0x3fb3d377d75a02e3	0.07744549758536894
28	0xbfc0425e4d8cb41f	-0.12702540194132525
29	0xbfa76fa314ecbdbc	-0.04577359800748179
30	0x3fa70b29991d3eaa	0.04500703805990487
31	0x3fbd12d28da9cd43	0.11356845816208243
32	0x3f9e581af931cf30	0.029632970294598937
33	0x3fb1a1e186ec7865	0.06887635749851169
34	0xbfc46504a5561786	-0.15933282921849584
35	0xbf88f2c053eee08d	-0.01218176132339035
36	0x3fa81f4c4b67615c	0.047113784985131274
37	0x3fb5cab2216eee3d	0.08512414280169707
38	0x3fa6811aae560ab1	0.04395373705030659
39	0xbf93adc267bf3832	-0.01921752699109209
40	0xbf8a14cdcf8ddc04	-0.012734992882299075
41	0xbf8641935965f4a0	-0.010867262998312477

tvecs f8 [14, 3, 1]
0	0x4005fb2fb7a448d5	2.7476496073732997
1	0xc014287a533475c0	-5.039529132916357
2	0x402b1af3191d252f	13.552635941322107
3	0xc0238d9726c32276	-9.776543818779128
4	0xc01bb58d6b2e2e55	-6.927297281926788
5	0x4030fe471b031b07	16.99327248407192
6	0xc023ad159517473c	-9.838055285541138
7	0xc01b510776525c00	-6.829130028511827
8	0x4031154dfc38a0f4	17.083221210313198
9	0xc007945042dc5dba	-2.9474187110424426
10	0xc02065a550d26051	-8.198526883774464
11	0x40343d7a399e10b1	20.2401462565328
12	0xc00578430ed0d0be	-2.6837216527438548
13	0xc01fd6c94a54d211	-7.959752236773526
14	0x4032fc6a21429b53	18.98599441410199
15	0xc01232a2682d38fe	-4.549447658310099
16	0xc00c369cf2577b38	-3.526666539473265
17	0x4034dda20d900c1d	20.865753982227137
18	0xc00c2b64c23558ed	-3.5211882755785298
19	0x40018c2fe92584b5	2.19345075746295
20	0x4032759db4dcde5a	18.45943766014384
21	0x4003d3848eb0bb4c	2.4782801768955434
22	0xc013cb3479577f0a	-4.948442359891269
23	0x402a77c5c597e62a	13.233930754463547
24	0xc021893288e75a2a	-8.767963674775348
25	0x3ff658374947d39e	1.3965371000788092
26	0x402eee9cbea96b20	15.466039617711033
27	0x3ff462c0a96fad50	1.2741095179179247
28	0xc006a68d6c46a08f	-2.8313244303754526
29	0x402c3b362b7558a4	14.115647657465452
30	0xc0203d82847fb005	-8.120136395060408
31	0xc0064770ab66fce3	-2.7848828688434977
32	0x402dade407250530	14.839630339879108
33	0x3fecd70110be9c2d	0.9012456252138513
34	0x3fe4cb5a9571f3ee	0.6498234671449816
35	0x402b2874dd3ee916	13.579016603402618
36	0xc023c8af7920f49d	-9.891963753960505
37	0x3ff7b573b292dc90	1.481799790910177
38	0x4030fd0509a9a837	16.988358119888485
39	0xc01135e415fdb93a	-4.302627891169601
40	0xc0059d1bf7e12854	-2.70171350150944
41	0x40215f68d88f1e94	8.686346785994182
