ExampleFiles/CameraParams/CameraParams.npz (npz, 1738 bytes, 4 tensors)

cameraMatrix f8 [3, 3]
000000 c8 ff 4d 9a f8 9c ab 40 00 00 00 00 00 00 00 00
       3534.4855522513135 0.0
000010 84 bc 1b fe aa 16 98 40 00 00 00 00 00 00 00 00
       1541.6669849714099 0.0
000020 a0 35 0f 8b 22 9f ab 40 39 4e bc d0 7b 16 a0 40
       3535.5674671891175 2059.2418269010054
000030 00 00 00 00 00 00 00 00 00 00 00 00 00 00 00 00
       0.0 0.0
000040 00 00 00 00 00 00 f0 3f
       1.0

dist f8 [1, 5]
000000 6c cb 76 09 c5 7a b8 3f 37 80 d5 94 8e cc cf bf
       0.09562331658416462 -0.2484300829628425
000010 0d 8d aa ba 99 d5 50 bf 48 91 45 0e 4c ca 69 bf
       -0.0010274888287902823 -0.003148220583329007
000020 9d bd 3f cd e2 ce c1 3f
       0.139126157969696

rvecs f8 [13, 3, 1]
000000 19 ab 7a 7f 31 5e a9 3f 9b a9 4c 6f b9 39 8d bf
       0.049546763240263476 -0.014270256718721444
000010 b2 00 f5 bd 3e 0d f9 bf 8e 5f 23 c7 f4 81 c8 bf
       -1.5657336635777424 -0.19146594737571515
000020 f7 18 86 b3 ec 91 de bf ac 5a 38 8b 12 0c f8 bf
       -0.47765653163550276 -1.5029473722731082
000030 68 21 63 aa 32 b1 e2 bf 69 4f 1c cd bd 58 e7 bf
       -0.5841306045413548 -0.7295826917711398
000040 94 16 2d 9f 44 42 f7 bf e6 e0 1d 71 f1 62 d5 bf
       -1.4536787240807927 -0.3341640095382118
000050 1c 30 a6 09 93 5b e0 bf d6 71 a3 69 7d c4 f7 bf
       -0.5111785114727385 -1.4854711653234651
000060 95 9d 8c b1 63 05 d4 3f 8b 0f 09 ff 1b 89 c9 3f
       0.31282894457623317 0.19949674561405248
000070 27 6e 8c 71 34 0d f9 bf 88 0e 58 ba bc aa d9 bf
       -1.5657238421907864 -0.4010459728017186
000080 96 7a de f5 56 6e cf 3f 1d 9f 1c 5a 7b d0 f8 bf
       0.24555480008435343 -1.550898887633543
000090 5d 6b b7 0d 93 6e da bf 6a 4b 49 fc 95 2c cb 3f
       -0.41299892749309725 0.21229815310160954
0000a0 1c 1f e4 ec 91 c2 f8 bf 72 43 13 d3 15 ec cc bf
       -1.5475024465139944 -0.22595475012215221
0000b0 70 76 dc 78 b4 aa c9 3f 5c dc 0b 2e cc ce f8 bf
       0.20052200223374284 -1.5504876898464977
0000c0 8c 10 e6 b6 1b 03 cc bf bf b7 35 07 1f f1 c9 3f
       -0.2188448565540323 0.20267093517344212
0000d0 48 fd 4a 07 00 c7 f8 bf 89 4b 54 49 6b 8e de 3f
       -1.5485840115432712 0.47744257126867545
0000e0 0b ac 1d 58 3f 1d d4 3f 2a 20 09 67 bf 79 f8 bf
       0.3142851219660662 -1.5297235512571299
0000f0 82 cf 78 56 4d 74 c8 bf 20 d3 68 c2 fd 94 e1 3f
       -0.19104925844441928 0.5494374081668845
000100 96 ba 32 6c e1 32 f8 bf d2 22 2a f4 26 1d d0 bf
       -1.5124220110407456 -0.251779306833254
000110 14 d5 6a 93 90 67 e1 3f 2a 54 62 e4 06 f1 f7 bf
       0.5438921813244257 -1.4963444634679584
000120 ba bc a4 bf ef 92 e2 3f 17 6d cb 32 ff 5c e2 bf
       0.580436586669655 -0.5738521568377192
000130 ec 84 05 6c 98 6e f7 bf
       -1.4645008296577613

tvecs f8 [13, 3, 1]
000000 a3 14 57 6f 5a 59 00 c0 52 ad ce b1 10 22 11 40
       -2.0436295221757788 4.283266809691968
000010 0f 4a 05 8a c4 e6 26 40 b5 7e c2 1a bc fb 0d c0
       11.450718224664369 -3.7479173746686123
000020 2d 76 8e fe 14 74 1a 40 1d e6 76 6e 3b 97 30 40
       6.613361337132614 16.590750602748916
000030 60 9d a4 05 84 8f 05 c0 3e b1 b4 17 26 0a 13 40
       -2.695076030813354 4.75991093674048
000040 d4 c1 07 69 b8 5b 25 40 22 3b 8b 2e e1 f7 03 c0
       10.67914131374065 -2.4960349689712453
000050 99 41 05 ef f7 85 0c 40 eb 42 e3 63 25 ae 21 40
       3.565414302204044 8.840129014484281
000060 07 9a fc 40 da e3 03 c0 b5 d7 5a f8 13 93 0b 40
       -2.4862561299407875 3.4468154337618793
000070 7f 7d b0 0c 8d 3b 29 40 ac 0a 56 f5 35 1f f7 3f
       12.61631049780294 1.445119818061964
000080 82 6f 66 27 a0 ce 20 40 3c 90 2e 79 fb 61 33 40
       8.403565627340644 19.382743429058095
000090 83 a9 30 ee 0c 2a f4 3f ca 11 e7 6f f6 f7 20 40
       1.2602662376690155 8.484302041012501
0000a0 9f b2 7f bc 4f 14 33 40 e9 18 b1 75 62 b7 1e c0
       19.079341679741102 -7.679086531576311
0000b0 90 14 4d 9c 36 ce 0c 40 bf 62 cb 1e b5 ab 35 40
       3.6006900988600776 21.670732426314085
0000c0 58 8d f8 08 1a 98 1f c0 c8 a8 7b 31 2b 82 0b 40
       -7.8985368158058336 3.4385589471686195
0000d0 9e a6 5a 25 e2 94 35 40 ad 23 05 7d ac 97 fe 3f
       21.581575712806277 1.9120297320934967
0000e0 4d 2b 2f b7 06 47 08 c0 72 af 54 d8 fe 1a 38 40
       -3.034680777670849 24.105451126742487
0000f0 a0 65 ef 1a 5b 9f 06 40 b5 15 79 da 83 6f 04 c0
       2.8278104881580504 -2.5544507091715
000100 52 bb 25 5e 22 74 37 40 27 c5 a6 b8 c7 b1 05 40
       23.453649410449835 2.711806719388409
000110 96 0c 57 10 5c b6 00 c0 c0 20 e7 3f 30 06 37 40
       -2.0890427853169724 23.024173730781285
000120 e7 7a 51 cb e0 d9 16 c0 45 df ee dc 11 6b 1c 40
       -5.712771584365988 7.104560329513167
000130 b9 c3 82 f9 2b 36 30 40
       16.21160849993223
